agent_code/test_agent/saved_models/my-saved-model_4linearlayers_400_200_200.pt (torch, 806063 bytes, 8 tensors)

linear1.weight f4 [400, 197]
000000 0d 3f 8d 42 9c 3e 8d 42 f8 3c 8d 42 3b 3b 8d 42
       70.623146 70.622284 70.61908 70.615685
000010 28 40 8d 42 35 3f 8d 42 bf 3d 8d 42 74 40 8d 42
       70.625305 70.62345 70.6206 70.625885
000020 55 3c 8d 42 1c 3e 8d 42 b8 3e 8d 42 7f 3a 8d 42
       70.617836 70.62131 70.6225 70.61425
000030 25 3d 8d 42 05 39 8d 42 99 3a 8d 42 3d 40 8d 42
       70.61942 70.61137 70.61445 70.625465
000040 83 3d 8d 42 56 3e 8d 42 ba 3e 8d 42 60 3c 8d 42
       70.62014 70.62175 70.62251 70.61792
000050 a3 3a 8d 42 d9 3d 8d 42 6c 3a 8d 42 a3 3f 8d 42
       70.614525 70.6208 70.614105 70.62429
000060 fe 58 84 3a 9a e4 f0 ba 5f 69 8e 3a 4d 09 82 3a
       0.0010097323 -0.0018378675 0.0010865143 0.0009920985
000070 83 3d 8d 42 47 3e 8d 42 44 3f 8d 42 86 24 cd 3b
       70.62014 70.621635 70.623566 0.0062604574
000080 81 3c 8d 42 de 97 f3 3b a8 3e 8d 42 76 3e 8d 42
       70.61817 0.0074338755 70.622375 70.621994
000090 c7 3c 8d 42 86 3a 8d 42 8c ba 01 3b f5 cf 11 3c
       70.618706 70.6143 0.0019795028 0.0088996785
0000a0 42 bc 3f 3b 29 0d 5a 3a cc 39 8d 42 f8 3c 8d 42
       0.0029256498 0.0008318001 70.612885 70.61908
0000b0 eb 3d 8d 42 2f 06 23 bc 62 3f 8d 42 74 4a 49 bb
       70.62093 -0.009950205 70.623795 -0.0030714544
0000c0 f5 3c 8d 42 f0 3a 8d 42 f1 40 8d 42 0c 41 8d 42
       70.61906 70.61511 70.62684 70.627045
0000d0 60 3b 8d 42 92 3d 8d 42 c8 3d 8d 42 14 3c 8d 42
       70.61597 70.620255 70.62067 70.61734
0000e0 b8 3d 8d 42 fc 3e 8d 42 83 3e 8d 42 ce 3b 8d 42
       70.620544 70.62302 70.62209 70.616806
0000f0 f2 3e 8d 42 e0 3c 8d 42 20 3e 8d 42 c8 3e 8d 42
       70.62294 70.6189 70.62134 70.62262
000100 bd 3c 8d 42 f9 f5 52 bb 6e db 85 3b 36 e7 ee 39
       70.61863 -0.0032190068 0.004084996 0.00045567163
000110 c1 ed 12 ba 49 a6 20 3b 05 3d 8d 42 95 3e 8d 42
       -0.0005604886 0.0024513176 70.61918 70.62223
000120 cf 60 be 3b 94 c9 24 bb ea b6 b0 bb 10 64 cb 3f
       0.0058098803 -0.0025144564 -0.005392899 1.5889912
000130 fc da 55 3b bd 3d 8d 42 0e 3f 8d 42 d5 42 a4 bb
       0.0032631746 70.62058 70.62315 -0.00501285
000140 a1 d3 9a bb 98 da b4 bb 03 76 cb 3f c1 07 a7 39
       -0.004724935 -0.0055192225 1.5895389 0.000318585
000150 31 3d 8d 42 39 3e 8d 42 f4 ff 19 bb 00 46 a6 ba
       70.619514 70.62153 -0.0023498507 -0.0012685657
000160 2a ce 14 39 f2 39 cb 3f 33 e0 4c ba b3 3f 8d 42
       0.00014191182 1.5877059 -0.00078153907 70.62441
000170 e3 3f 8d 42 6e f0 7e 3b 08 69 35 3b 8b 01 26 3b
       70.62478 0.0038900631 0.0027681012 0.002533051
000180 d3 08 cc 3f f9 4f e5 bb ab be b8 ba 1e 6c 43 bb
       1.5940193 -0.006998059 -0.001409491 -0.0029819082
000190 5c 4b f7 38 8d ee 64 bb c9 02 a5 3b bf bd d0 3a
       0.000117919146 -0.0034932226 0.0050357324 0.0015925689
0001a0 49 31 48 3b df 9f 7a 3b 28 d0 39 bb 62 50 00 bc
       0.0030546954 0.0038242263 -0.002835283 -0.007831665
0001b0 34 e1 a9 ba 15 b1 4b 3b 8b c6 b6 b9 4c 15 1a bc
       -0.0012960793 0.003108089 -0.0003486167 -0.009404492
0001c0 6e 98 3b b8 a5 58 60 3b 09 8f f9 3b 55 c6 b0 3a
       -4.4726236e-05 0.0034232524 0.007615928 0.0013486842
0001d0 ba b8 8e 3b 94 99 d5 3b 4f 8f bf 3b 97 fd 35 3b
       0.004355517 0.006518552 0.005845941 0.002776956
0001e0 03 3c 88 bb e3 8e 94 3a f0 87 02 3b 6e d5 72 bb
       -0.0041575446 0.0011334087 0.001991745 -0.0037053484
0001f0 68 2d 99 bb fc cc bc 3b 72 4d e6 ba fe cd bd 38
       -0.0046746023 0.0057617407 -0.0017570688 9.050591e-05
000200 95 e7 80 bb 59 43 3d 3b 8e ea e4 ba 1a 96 95 c2
       -0.0039338567 0.0028879254 -0.0017464922 -74.79317
000210 f9 50 47 b9 95 a5 c4 bb 5b f5 3c 3b 90 68 e9 ba
       -0.00019008284 -0.006001184 0.0028832767 -0.0017807651
000220 86 a4 c0 3b 17 cc 40 40 14 44 87 3f 67 b8 b1 c1
       0.0058789877 3.0124567 1.0567651 -22.21504
000230 3e 7b c6 ba c2 b4 22 ba 06 a9 8d bb 66 a7 bd bb
       -0.001514293 -0.00062067446 -0.0043231277 -0.0057877777
000240 59 78 56 bb 20 8d 05 40 c3 ed bb 3b 69 aa a4 39
       -0.0032725541 2.0867386 0.0057351305 0.00031407483
000250 d3 b6 18 3b 39 15 cb b9 23 1c 24 3a 2d 3d 63 3b
       0.002330233 -0.0003873499 0.0006260296 0.0034673915
000260 28 91 02 3c 44 cf f0 3b d6 f6 97 3b ac 0d b4 bb
       0.007969178 0.0073489267 0.0046375794 -0.005494794
000270 57 74 59 3b 85 0d f0 3a 5b ce 0d bb 0f a5 4b bb
       0.0033180916 0.0018314576 -0.002163789 -0.0031073724
000280 06 60 a4 bb bf 72 a9 bb bb 57 96 b9 c3 01 b9 3b
       -0.0050163297 -0.0051711495 -0.00028675594 0.005645962
000290 cd c4 8a 3b 38 3b 5e bc 0d b5 38 bb b6 db 4e bb
       0.0042348863 -0.013563924 -0.0028184087 -0.0031564063
0002a0 34 2f cb 3a f4 51 f2 3b c8 78 ba 3b b7 70 24 3b
       0.0015501739 0.0073950235 0.005690668 0.0025091597
0002b0 05 07 b6 ba 41 a2 57 3b 35 e3 a8 3b fa 93 82 bb
       -0.001388759 0.0032903107 0.0051540383 -0.0039849253
0002c0 8b 3c 80 3b 2b 22 92 3b d0 d1 1f bb 95 97 ee b9
       0.0039134673 0.0044596395 -0.0024386533 -0.00045507835
0002d0 87 d7 76 3b d6 25 b6 ba 31 f5 4a b7 42 b5 24 3a
       0.0037665085 -0.0013896774 -1.2097226e-05 0.0006283113
0002e0 84 0b 19 3a d8 71 1d ba 9e b4 b5 3a a9 1c 08 bb
       0.0005838203 -0.0006006039 0.0013863032 -0.0020769036
0002f0 d8 58 84 3a dc f2 b0 ba 18 b0 de 3b 69 66 b1 bb
       0.0010097278 -0.0013500112 0.0067958944 -0.0054138196
000300 19 38 6c 3b 4d a6 98 bb 12 68 90 3b 05 2b 9c bb
       0.003604418 -0.0046584965 0.0044069374 -0.0047658705
000310 b9 37 96 c2 5e b0 9a 42 4e ac 9a 42 f4 ae 9a 42
       -75.10883 77.34447 77.33653 77.341705
000320 c3 a9 9a 42 ce ac 9a 42 05 af 9a 42 b1 af 9a 42
       77.331566 77.33751 77.341835 77.34315
000330 00 af 9a 42 44 ac 9a 42 9c a9 9a 42 ab a9 9a 42
       77.3418 77.33646 77.33127 77.33138
000340 07 aa 9a 42 08 a9 9a 42 ba ab 9a 42 06 b0 9a 42
       77.332085 77.33014 77.3354 77.343796
000350 1d aa 9a 42 04 af 9a 42 98 ab 9a 42 b7 af 9a 42
       77.33225 77.34183 77.335144 77.34319
000360 c8 ad 9a 42 bf ad 9a 42 f5 aa 9a 42 91 ac 9a 42
       77.33942 77.33935 77.3339 77.33704
000370 50 ad 9a 42 ce c1 63 bb 61 02 2b 3b e3 e3 3c 3b
       77.3385 -0.0034752968 0.0026093947 0.0028822355
000380 2f 70 a8 ba 7b ab 9a 42 7b ac 9a 42 d3 ac 9a 42
       -0.0012850816 77.33492 77.336876 77.33755
000390 03 ea cd bb 68 ab 9a 42 c4 75 20 3a df a9 9a 42
       -0.006284 77.33478 0.0006121064 77.33178
0003a0 07 ad 9a 42 41 ab 9a 42 51 ae 9a 42 b9 35 e8 3a
       77.337944 77.33448 77.34046 0.0017716206
0003b0 66 75 90 3a a2 62 35 3b db ab 3d bb 03 b0 9a 42
       0.0011021316 0.0027677198 -0.0028941545 77.34377
0003c0 91 ad 9a 42 bf ad 9a 42 73 13 fd bb 1f b1 9a 42
       77.339 77.33935 -0.007723266 77.34594
0003d0 44 d5 90 3b 2b af 9a 42 73 ab 9a 42 0e af 9a 42
       0.0044199545 77.342125 77.33486 77.3419
0003e0 71 ac 9a 42 da ae 9a 42 70 aa 9a 42 2e b1 9a 42
       77.3368 77.34151 77.332886 77.346054
0003f0 27 b2 9a 42 cf b0 9a 42 be aa 9a 42 fa ac 9a 42
       77.34795 77.34533 77.33348 77.337845

linear1.bias f4 [400]
000000 e3 b6 84 c2 3e f8 95 c2 71 6a 76 42 a6 52 88 c2
       -66.3572 -74.98485 61.603947 -68.16142
000010 7a 8f 8e 42 49 6e 8c 42 84 26 8c 42 34 ec 4e 42
       71.28023 70.2154 70.075226 51.730667
000020 b4 09 64 42 45 9a 79 c2 60 30 53 c2 0d 75 67 c2
       57.009476 -62.400654 -52.79724 -57.864307
000030 a9 ba a5 c2 5f 3a 92 c2 2c 95 7f c2 fa 58 88 42
       -82.86457 -73.114006 -63.895676 68.17378
000040 2c 07 39 c2 ba 56 84 c2 d9 9f 3a 42 df de 3e c2
       -46.257004 -66.16939 46.6561 -47.717648
000050 cb e5 64 42 69 01 30 42 af de 74 c2 83 8f 5a c2
       57.224407 44.001377 -61.217464 -54.64015
000060 e1 d9 64 c2 26 3a 3c 42 92 75 66 c2 22 6c 90 c2
       -57.212772 47.056786 -57.614815 -72.2112
000070 4a 2a a7 42 53 53 a7 42 e3 14 58 c2 82 26 8f c2
       83.582596 83.66274 -54.020397 -71.57521
000080 cd 58 3d c2 2d c4 85 42 df 3f 69 c2 c3 aa 95 c2
       -47.33672 66.883156 -58.312374 -74.83352
000090 be d1 7f 42 f7 59 8e c2 8e 47 27 c2 03 b5 70 c2
       63.954826 -71.17571 -41.819878 -60.17677
0000a0 ef c0 40 c2 61 7b 77 42 51 4f 4f c2 fe 2f 8d c2
       -48.18841 61.870487 -51.827457 -70.593735
0000b0 7e 3f 82 42 a7 12 94 42 ea d8 77 c2 79 f2 4c c2
       65.12401 74.03643 -61.96183 -51.23679
0000c0 78 4b 8c 42 c3 28 8b c2 ed e0 3d c2 c4 e5 92 c2
       70.1474 -69.57961 -47.469654 -73.44876
0000d0 71 fb b2 c2 45 b7 99 42 75 05 80 c2 96 1e 70 42
       -89.4911 76.85795 -64.01066 60.02987
0000e0 1c a0 9a c2 64 fd 7d c2 98 34 46 42 61 bf 8a c2
       -77.31271 -63.49745 49.55136 -69.37379
0000f0 65 5a 80 42 12 e9 1c 42 15 1a 46 42 6d 27 6e c2
       64.17655 39.227608 49.52547 -59.5385
000100 5e 53 94 42 5a 04 5d c2 52 45 6e 42 58 fc 5d c2
       74.16283 -55.25425 59.567696 -55.49643
000110 59 58 6f 42 3a e0 70 c2 e2 75 62 c2 01 0d 86 42
       59.836277 -60.21897 -56.61512 67.0254
000120 57 9a 32 c2 51 de 6f c2 1e ef 75 c2 ce 34 71 c2
       -44.650723 -59.967106 -61.483513 -60.301567
000130 76 8b 8a c2 56 8b 83 c2 2b 77 92 42 8f 46 95 c2
       -69.272385 -65.77214 73.23275 -74.63781
000140 40 cf 90 42 19 17 2f 42 64 a3 32 c2 e6 e9 59 c2
       72.404785 43.772556 -44.65956 -54.478416
000150 86 d2 7c 42 ff 44 25 c2 21 b0 5a c2 57 45 64 c2
       63.20559 -41.31738 -54.672 -57.067715
000160 5d 7b 9a c2 33 04 5a 42 a8 32 71 c2 45 90 63 42
       -77.240944 54.5041 -60.29947 56.89089
000170 2d eb 95 42 b1 fd 4e c2 d3 3f 6d c2 2e b3 20 c2
       74.95933 -51.747746 -59.31233 -40.17498
000180 1e f7 73 c2 13 de 75 42 c4 d6 2c 42 64 1e b1 42
       -60.991325 61.46687 43.209732 88.55936
000190 64 bb 42 c2 c7 29 82 42 85 b2 42 c2 ec a4 9a c2
       -48.683 65.0816 -48.674335 -77.32211
0001a0 bd a9 87 42 30 ce 44 42 3d 9f 27 c2 60 3e af c2
       67.83152 49.201355 -41.905506 -87.621826
0001b0 b6 0e b6 42 da 7c 87 42 bb e2 90 42 e1 60 82 42
       91.02873 67.74385 72.44283 65.18922
0001c0 cc fe 35 c2 8c ce 3e c2 b4 f5 55 c2 84 80 a6 42
       -45.498825 -47.701706 -53.489944 83.25101
0001d0 d9 d0 38 c2 f6 30 81 c2 4c 30 a0 42 c7 88 3b 42
       -46.203953 -64.59563 80.09433 46.88357
0001e0 8f a8 82 c2 64 d0 69 c2 c1 2a 66 42 58 27 93 c2
       -65.329216 -58.453506 57.54175 -73.57684
0001f0 91 55 91 42 05 df 65 c2 b9 9d 77 c2 7a 72 6b c2
       72.66712 -57.467793 -61.904026 -58.861794
000200 db a7 a2 42 77 d2 85 42 ef 30 7d 42 92 8b 96 c2
       81.32784 66.911064 63.297787 -75.2726
000210 e6 f0 63 c2 71 43 66 c2 62 0b 8c 42 e0 ca 6b 42
       -56.985252 -57.56586 70.02223 58.94812
000220 e1 10 7b 42 1f 37 9b c2 22 80 96 42 39 b0 8e 42
       62.766483 -77.60766 75.25026 71.344185
000230 17 4b 77 c2 1d 60 77 c2 c7 41 89 42 d9 85 8e c2
       -61.82333 -61.84386 68.62847 -71.26142
000240 d7 dc 4e 42 e6 48 a0 42 85 69 a5 42 c5 99 98 42
       51.715664 80.14238 82.70609 76.30033
000250 bb 30 96 c2 51 7b 82 42 40 a5 9e 42 92 9e 8a c2
       -75.09518 65.24085 79.322754 -69.30971
000260 17 ca 7a 42 45 c5 61 c2 91 fc 82 c2 cc d0 5e c2
       62.697353 -56.442646 -65.49329 -55.703903
000270 57 3e 5e c2 ca 54 50 c2 85 ca 71 c2 1f 69 5d 42
       -55.56088 -52.0828 -60.447773 55.352657
000280 9e e7 95 c2 e9 0c 22 c2 03 a7 61 c2 67 10 b3 c2
       -74.95238 -40.512608 -56.413097 -89.532036
000290 8f f3 76 c2 ca b4 aa c2 27 c0 9e 42 cf 0a 9d c2
       -61.73785 -85.3531 79.3753 -78.52111
0002a0 79 37 33 42 6d 60 96 42 fc fe 73 c2 1e 9b 41 c2
       44.804173 75.18833 -60.99901 -48.40148
0002b0 94 90 7c c2 f0 ef 7f 42 13 1a a0 42 10 18 5d c2
       -63.14119 63.984314 80.05093 -55.2735
0002c0 db 43 90 42 1d 2d 5e c2 a9 5e 37 42 18 f7 76 c2
       72.13253 -55.544056 45.84244 -61.741302
0002d0 27 d8 a5 c2 d3 62 90 c2 40 04 8e 42 3c 07 8c c2
       -82.92217 -72.193016 71.0083 -70.01413
0002e0 29 27 f4 c1 6e 70 8f c2 78 83 77 42 02 1f 9e c2
       -30.519121 -71.71959 61.878387 -79.06056
0002f0 fc d5 76 42 6a fa 47 c2 87 63 3d c2 05 f9 55 c2
       61.70897 -49.994545 -47.347195 -53.493183
000300 95 e7 40 42 0a 9f 95 42 fe 2d 5e c2 7d 92 76 c2
       48.226154 74.81062 -55.544914 -61.643055
000310 ad 99 88 c2 17 eb 8e c2 be ca 57 c2 94 c3 7b 42
       -68.30015 -71.45916 -53.94799 62.940994
000320 2d 03 a5 c2 7f 1e 69 42 60 4b 8b c2 45 d9 85 c2
       -82.5062 58.27978 -69.64722 -66.924355
000330 0b 7a 27 c2 90 fa 86 42 77 23 7c c2 bb eb 86 42
       -41.869183 67.48938 -63.034634 67.46041
000340 5b f7 84 42 b4 cf 97 42 79 33 58 c2 78 94 2e c2
       66.483116 75.90567 -54.050266 -43.64499
000350 65 e5 5d 42 6a ac 74 c2 5d c2 25 c2 15 11 0f c2
       55.47402 -61.168373 -41.439808 -35.76668
000360 a1 df a0 c2 9d 82 72 c2 7c 41 9f 42 68 2b 82 c2
       -80.436775 -60.627552 79.6279 -65.08478
000370 4f 84 98 c2 f5 de 37 c2 c9 bb 83 42 0f c0 6b c2
       -76.258415 -45.96773 65.86677 -58.937557
000380 d9 92 7d 42 e6 52 58 c2 17 46 5e c2 c1 6d 64 c2
       63.393406 -54.080956 -55.568447 -57.10718
000390 d6 cc c0 c2 0d d9 79 42 dc 72 98 42 78 d0 5a 42
       -96.40007 62.461964 76.224335 54.703583
0003a0 44 22 87 c2 1f ad 28 c2 71 6b 92 c2 53 0f 8c c2
       -67.566925 -42.169064 -73.20985 -70.02993
0003b0 51 a7 8d 42 61 a3 84 c2 4d 16 65 c2 85 f4 5d 42
       70.82679 -66.3191 -57.27178 55.48879
0003c0 7b 04 85 42 72 9e 9e c2 d0 e3 8d c2 04 fa 60 c2
       66.50875 -79.30946 -70.94495 -56.244156
0003d0 64 f7 95 c2 2a c5 ad 42 77 b4 53 c2 3a 88 94 42
       -74.983185 86.885086 -52.926235 74.26607
0003e0 f2 77 84 42 58 44 81 42 28 54 94 c2 85 ef 95 42
       66.23427 64.633484 -74.16437 74.96781
0003f0 08 3e 66 c2 21 6a 86 c2 7c 4d 7d 42 29 da 80 42
       -57.560577 -67.20728 63.32567 64.426094

linear2.weight f4 [200, 400]
000000 84 8b 19 42 21 1f 1f 42 78 af 28 c2 4e e7 22 42
       38.386246 39.7804 -42.171356 40.725883
000010 d2 4e 29 c2 e8 c1 17 c2 5d 1e 0d c2 71 d7 02 c2
       -42.326973 -37.93936 -35.27965 -32.710392
000020 0d da 11 c2 58 f3 17 42 77 3a 07 42 0f f3 aa 41
       -36.46294 37.98764 33.807095 21.368681
000030 0d 57 16 42 29 d6 10 42 16 22 12 42 48 c2 0a c2
       37.58501 36.20914 36.533287 -34.689728
000040 14 59 1e 42 bb fa 0c 42 9d ef 19 c2 0b 36 23 42
       39.58699 35.244854 -38.483997 40.802776
000050 14 b7 1d c2 19 f6 06 c2 27 ee 0d 42 3b 2d 1c 42
       -39.428787 -33.74033 35.48257 39.04417
000060 5e fb 2b 42 18 14 12 c2 28 00 1e 42 4f 85 1d 42
       42.995476 -36.519623 39.500153 39.380184
000070 3f 52 2f c2 8d 37 20 c2 d7 11 1e 42 3e f3 19 42
       -43.83032 -40.05425 39.51742 38.48754
000080 a1 b5 67 41 23 27 29 c2 e6 03 ce 41 13 42 17 42
       14.481843 -42.28822 25.751904 37.814526
000090 44 d7 2d c2 de a6 13 42 78 5d 19 42 fd 7b ad 41
       -43.46022 36.912956 38.341278 21.685541
0000a0 be 62 f2 41 47 af 1d c2 54 03 11 42 c6 3d 15 42
       30.298214 -39.42117 36.25325 37.310326
0000b0 39 a1 14 c2 2a 9f 26 c2 a5 4f fa 41 79 81 1e 42
       -37.157444 -41.655434 31.288889 39.62644
0000c0 e0 1c 21 c2 4f eb 22 42 6c 3e 21 42 91 99 23 42
       -40.2782 40.729794 40.31096 40.899967
0000d0 4d 52 07 42 02 6e 04 c2 76 1f 20 42 9d 29 1f c2
       33.83037 -33.10743 40.030724 -39.790638
0000e0 89 4d 19 42 b5 b6 2d 42 d0 78 22 c2 03 53 18 42
       38.325718 43.428425 -40.61798 38.081066
0000f0 ed e8 1a c2 66 ed 33 c1 39 ec da c1 bc d1 19 42
       -38.727467 -11.245459 -27.365343 38.45482
000100 d1 c5 23 c2 02 27 01 42 fe ce 1e c2 40 3e 02 42
       -40.94318 32.288094 -39.70214 32.56079
000110 0e 0d ae c1 47 f8 00 42 35 4a 09 42 1c d1 26 c2
       -21.756374 32.24246 34.322468 -41.70421
000120 04 8a cd 41 1d 27 24 42 2a d5 0d 42 7e d9 1c 42
       25.69239 41.038197 35.458168 39.212395
000130 18 e1 15 42 e1 af 19 42 16 fc 32 c2 f3 93 22 42
       37.46982 38.421757 -44.746178 40.64448
000140 89 dd 23 c2 b4 06 c4 c1 a3 d6 00 42 76 da 1f 42
       -40.966343 -24.503273 32.209606 39.96334
000150 e8 0c 1e c2 b0 63 a1 41 c9 cb 06 42 b6 b3 23 42
       -39.512604 20.173676 33.69901 40.9255
000160 5e 7a 0b 42 3a 40 1c c2 de 9c 1b 42 fa a1 1f c2
       34.8695 -39.06272 38.90319 -39.90818
000170 e5 b9 20 c2 b0 65 ba 41 77 c3 12 42 1e a3 0a 42
       -40.181538 23.299652 36.690884 34.659294
000180 4f c4 1e 42 ca ce 0e c2 75 18 c8 c1 2c 9a 27 c2
       39.691708 -35.701942 -25.011942 -41.90056
000190 2d da 14 42 8f 64 25 c2 90 89 a2 41 b9 cd 1c 42
       37.213062 -41.3482 20.31717 39.2009
0001a0 f8 1f 29 c2 68 a1 ff c1 02 37 c4 41 17 93 17 42
       -42.28122 -31.953812 24.52686 37.893642
0001b0 de ea 20 c2 28 aa 14 c2 40 53 2d c2 36 b1 19 c2
       -40.229362 -37.16617 -43.3313 -38.423058
0001c0 12 f1 07 42 c1 d2 13 42 c8 aa 17 42 8d 65 19 c2
       33.98542 36.955814 37.91678 -38.34917
0001d0 a0 6c 14 42 6a e1 1a 42 8c c9 20 c2 08 74 18 c2
       37.10608 38.72013 -40.196823 -38.11331
0001e0 41 07 11 42 53 f0 12 42 48 d0 20 c2 4d e2 17 42
       36.257084 36.73469 -40.2034 37.970997
0001f0 bc aa 2f c2 26 48 1f 42 b6 7a 23 42 26 d4 1b 42
       -43.916733 39.820457 40.869835 38.957176
000200 a1 46 1d c2 6e 37 15 c2 31 4d 2e c2 55 10 1f 42
       -39.318974 -37.30413 -43.575382 39.76595
000210 a9 94 01 42 36 21 29 42 2b 10 1c c2 eb c0 34 c2
       32.395176 42.282433 -39.01579 -45.188396
000220 a4 ac 1e c2 11 05 19 42 f5 38 1f c2 6f ca 15 c2
       -39.668594 38.254948 -39.805622 -37.44769
000230 d0 a5 08 42 e4 aa 1f 42 74 a4 1a c2 24 a1 15 42
       34.161926 39.916885 -38.6606 37.407364
000240 7a 0c 1a c2 b5 e8 20 c2 90 a5 27 c2 64 22 1a c2
       -38.512184 -40.227253 -41.911682 -38.533585
000250 0a 6d 20 42 7b 56 13 c2 62 77 2b c2 11 d9 14 42
       40.106483 -36.834454 -42.866585 37.21198
000260 62 b8 0c c2 7f 9f 24 42 45 fe 1a 42 2a f3 0b 42
       -35.18006 41.155758 38.74831 34.987465
000270 9d 43 1a 42 b8 0b e5 41 db 35 25 42 31 a5 20 c2
       38.56603 28.630722 41.302593 -40.16132
000280 c3 32 14 42 7c 15 07 42 2b 88 23 42 3e ea 20 42
       37.049572 33.77098 40.882977 40.228752
000290 23 7d 1b 42 12 71 28 42 63 dd 1c c2 ee 16 13 42
       38.872204 42.11042 -39.216198 36.772392
0002a0 e2 6c 1a c2 bc bb 33 c2 0e 56 19 42 a5 ce f2 41
       -38.60633 -44.933334 38.334038 30.3509
0002b0 f8 67 26 42 b7 f4 1f c2 64 6e 25 c2 8e 71 15 42
       41.601532 -39.98898 -41.357803 37.360893
0002c0 e7 47 28 c2 f9 59 1f 42 c9 1f 1c c2 3e a4 16 42
       -42.070217 39.837864 -39.03104 37.660393
0002d0 ab e8 e6 41 b9 89 0e 42 0b 26 26 c2 ec d7 24 42
       28.863607 35.634495 -41.53715 41.21086
0002e0 e4 0a 04 42 1b b9 1b 42 73 ce 13 c2 bc 36 1e 42
       33.010635 38.930767 -36.95161 39.55345
0002f0 7b 4b 27 c2 5d 12 14 42 c8 1a f4 41 26 70 08 42
       -41.82371 37.017933 30.513077 34.10952
000300 5c 6d f0 c1 f7 88 06 c2 5c 97 09 42 05 83 1d 42
       -30.053398 -33.633755 34.39781 39.37795
000310 7b 75 26 42 99 ee 1e 42 d7 67 22 42 42 bc 18 c2
       41.614727 39.733006 40.601406 -38.183846
000320 f4 1e 25 42 4b 09 0f c2 30 83 1d 42 01 31 22 42
       41.280228 -35.759075 39.378113 40.547855
000330 7e b7 20 42 26 fe 30 c2 d7 78 1c 42 27 45 3c c2
       40.17919 -44.24819 39.118008 -47.06753
000340 82 24 29 c2 9d d2 1f c2 36 c4 1b 42 fe 4f 0b 42
       -42.285652 -39.955677 38.941612 34.828117
000350 37 3f 11 c2 3c 28 11 42 a6 13 ad 41 88 6e 05 42
       -36.311733 36.28929 21.634594 33.35794
000360 1b f7 20 42 a6 38 10 42 5f 2e 22 c2 bd a8 1c 42
       40.241314 36.05532 -40.545284 39.164783
000370 31 c9 1d 42 00 5b 17 42 a1 bd 27 c2 72 34 26 42
       39.446476 37.838867 -41.935184 41.551216
000380 87 18 1d c2 92 11 fb 41 06 54 24 42 46 4d 17 42
       -39.273952 31.38358 41.082054 37.825462
000390 7b 37 28 42 30 68 17 c2 db 63 23 c2 62 64 1e c2
       42.05418 -37.851746 -40.847515 -39.59803
0003a0 58 cd 09 42 d5 f0 c5 41 fc b8 1c 42 e1 9f 0c 42
       34.45053 24.742594 39.18065 35.15613
0003b0 6e 2f 28 c2 6a 38 1b 42 18 7c 23 42 2d b2 19 c2
       -42.046318 38.80509 40.871185 -38.424
0003c0 c9 9a 05 c2 c1 cc 1d 42 13 1d 26 42 44 9b 1d 42
       -33.401157 39.449955 41.528393 39.401627
0003d0 33 5c 22 42 e1 37 1f c2 74 e7 14 42 7b 4a 22 c2
       40.59004 -39.80457 37.22603 -40.572735
0003e0 6e fe 24 c2 e4 23 26 c2 b1 13 26 42 ee 18 1b c2
       -41.248466 -41.53505 41.51923 -38.774345
0003f0 11 43 13 42 4a 4f 09 42 80 bc 1b c2 fa 53 1e c2
       36.815495 34.32743 -38.934082 -39.58201

linear2.bias f4 [200]
000000 b0 80 0d c2 50 2b 47 c2 18 5b 74 c2 a7 ca 5c 42
       -35.37567 -49.792297 -61.08896 55.197903
000010 81 91 39 c2 38 09 5f 42 ed 28 8f 42 6f 8a 91 c2
       -46.392094 55.759003 71.57993 -72.77038
000020 a9 09 8b 42 72 f2 71 42 ae 82 83 42 fc 20 61 42
       69.51887 60.486763 65.75523 56.28221
000030 f7 de 8f c2 4d 8c a2 42 cf 92 4b c2 e1 8b 52 c2
       -71.93548 81.274025 -50.893368 -52.6366
000040 30 01 72 c2 d4 da 5b c2 1a 79 81 42 37 f1 1f c2
       -60.50116 -54.9637 64.73653 -39.98556
000050 07 2d 51 c2 e8 d7 20 c2 fc 17 76 42 8e 00 48 42
       -52.293972 -40.210846 61.523422 50.00054
000060 6f 9f 05 c2 34 ff 84 c2 0e 2a 66 c2 cc c8 74 c2
       -33.405697 -66.49844 -57.54107 -61.19609
000070 54 d6 6c 42 e0 92 2e 42 81 5a 54 c2 ad 86 4f c2
       59.209305 43.643433 -53.088383 -51.88152
000080 f1 ec 28 c2 4e b7 8f 42 86 4e f1 c1 63 ab 59 42
       -42.231388 71.85802 -30.163342 54.41737
000090 25 fb 7f c2 6f 78 62 42 3d 8e 37 c2 48 5a 55 c2
       -63.99526 56.61761 -45.888905 -53.338165
0000a0 51 f9 85 42 f4 0f 2c c2 35 68 79 42 02 bb 48 c2
       66.986946 -43.01558 62.351765 -50.182625
0000b0 c0 e8 5a 42 05 66 7a 42 3a f8 65 42 c0 8a 90 42
       54.727295 62.59963 57.49241 72.270996
0000c0 68 d6 8d 42 af 6b 24 c2 41 fd 1e c2 0d e6 6d c2
       70.91876 -41.10516 -39.74732 -59.47466
0000d0 7a f0 87 42 52 87 60 c2 73 a1 09 c2 f0 b6 54 c2
       67.96968 -56.13215 -34.407665 -53.17865
0000e0 e5 71 73 42 9d 54 44 c2 c7 4f 2e c2 7e 23 9d 42
       60.861225 -49.08263 -43.577908 78.56932
0000f0 82 2f 84 c2 93 cc 48 c2 7c ae b1 41 eb 4d 55 42
       -66.09279 -50.19978 22.210197 53.32609
000100 94 7b 82 c2 51 7a 66 c2 1e f9 4d c2 cb ed 46 c2
       -65.24136 -57.61945 -51.49328 -49.73222
000110 9f cb 41 42 91 ba 2d 42 ad b0 8b 42 80 21 6f c2
       48.44885 43.432194 69.84507 -59.782715
000120 bc 59 4c c2 1c 34 73 42 a6 3d 83 c2 4c 45 5b c2
       -51.08763 60.800888 -65.62041 -54.817673
000130 0f a0 80 c2 d3 b2 5f 42 d4 81 86 c2 6f 9c 44 c2
       -64.312614 55.924633 -67.25357 -49.152767
000140 0b dc 6d 42 22 19 45 c2 fa 13 22 42 41 43 6c 42
       59.464886 -49.274544 40.51951 59.065678
000150 c3 e4 79 c2 8a 45 3c c2 fe 5e 74 c2 0c 24 4d c2
       -62.4734 -47.06791 -61.092766 -51.285202
000160 da 2a 89 c2 54 09 81 42 7c 4f 48 c2 c1 5b 7b c2
       -68.583694 64.51822 -50.07762 -62.839603
000170 c7 5b 64 42 1a c2 74 42 73 51 27 c2 87 aa 91 42
       57.089626 61.189552 -41.82954 72.83306
000180 db ab 54 c2 7c 9c 06 c2 06 58 3e c2 45 d0 6f 42
       -53.167828 -33.652817 -47.58596 59.95339
000190 6b 02 8c 42 a8 9d 95 42 7a 89 60 c2 aa 2a 7a 42
       70.00472 74.80792 -56.134254 62.541664
0001a0 59 56 54 42 c3 9c 2e 42 04 06 02 c2 98 76 86 42
       53.084324 43.653088 -32.505875 67.23163
0001b0 63 92 1b c2 6f f7 18 c2 fb 60 34 42 18 85 4c c2
       -38.892956 -38.241634 45.094707 -51.129974
0001c0 b0 8a 46 c2 17 83 8f 42 cc a4 97 42 53 7e 80 c2
       -49.635437 71.756035 75.82187 -64.24673
0001d0 d4 f2 53 c2 60 6d 80 42 1f 6e 13 c2 b0 1a 4e 42
       -52.987137 64.21362 -36.85754 51.526062
0001e0 e2 45 8e c2 e3 91 6b c2 01 71 8b 42 97 8f 69 c2
       -71.13649 -58.892467 69.72071 -58.390224
0001f0 5a d9 95 42 e9 2e 83 42 f2 93 a0 42 19 3b 66 c2
       74.924515 65.59162 80.288956 -57.557713
000200 bc 9f 32 42 f1 70 83 42 79 d3 5c c2 14 1b 55 c2
       44.65599 65.72059 -55.206516 -53.276443
000210 90 c6 56 42 6e c8 69 42 a5 94 95 42 a3 5c 42 42
       53.69391 58.445732 74.79032 48.590466
000220 ad 5f 7d 42 37 96 76 42 ec 09 5a 42 04 f8 57 42
       63.343433 61.646694 54.50969 53.992203
000230 15 3c 4e c2 79 44 68 42 75 91 4e c2 68 e1 3c 42
       -51.558674 58.066868 -51.642048 47.220123
000240 78 05 32 c2 31 8b 32 c2 28 09 45 c2 f5 52 76 42
       -44.50534 -44.63593 -49.25894 61.581013
000250 e9 de 4c c2 09 93 52 42 cb 66 94 42 f5 8d 5b c2
       -51.217686 52.64359 74.20077 -54.88863
000260 cf 28 5a c2 b8 fa 32 42 5f 5a 2b c2 71 f0 7c c2
       -54.539852 44.744843 -42.838253 -63.234806
000270 65 4d 6b c2 30 40 82 42 e0 6d 8d 42 e0 02 2b c2
       -58.82558 65.12537 70.7146 -42.752808
000280 b1 ef 80 c2 2b 3c 51 c2 58 1f 50 c2 2d f8 c9 c1
       -64.46815 -52.308758 -52.03061 -25.24618
000290 a8 2a 89 42 56 bc 34 c2 18 fe 73 42 54 63 73 42
       68.58331 -45.18392 60.99814 60.847
0002a0 9a 1d 92 42 52 04 73 42 21 15 72 42 ca 70 6d 42
       73.057816 60.75422 60.520634 59.360146
0002b0 ac 77 79 42 db 5e 9e 42 95 00 7b c2 6b ce 82 42
       62.366867 79.185265 -62.75057 65.40316
0002c0 f8 c5 2f c2 11 33 68 42 00 96 42 42 44 df 47 42
       -43.94333 58.04987 48.646484 49.968033
0002d0 1e 7b 32 c2 8d ee 63 42 2e f2 22 42 12 7c 62 42
       -44.62023 56.98296 40.736504 56.621162
0002e0 ff 79 4d 42 58 4b 47 42 ae 0a 92 42 84 1b 40 c2
       51.369137 49.823578 73.02086 -48.02687
0002f0 88 3c 79 c2 01 0f 8d 42 79 05 9a 42 fe 7c 38 c2
       -62.309113 70.529305 77.01069 -46.122063
000300 fa a3 89 c2 17 3b 81 42 d2 e7 4b 42 f5 6d 45 c2
       -68.82027 64.61541 50.976387 -49.35738
000310 ab 85 54 c2 b3 24 30 42 db 04 4d 42 de f3 96 42
       -53.130535 44.03584 51.25474 75.4763

linear3.weight f4 [200, 200]
000000 d7 2a ce 42 41 f2 cd 42 c1 8e c8 42 3d a4 d1 c2
       103.08367 102.97315 100.27882 -104.82078
000010 c8 60 c7 42 dd 7d d5 c2 af 8a d3 c2 3a e9 cb 42
       99.689026 -106.74583 -105.77087 101.95552
000020 fa 43 cd c2 75 20 ce c2 01 f9 ce c2 70 a8 d7 c2
       -102.63277 -103.06339 -103.486336 -107.82898
000030 ec 9d c5 42 a9 a4 cf c2 4f c2 c9 42 9d da cc 42
       98.80844 -103.8216 100.87951 102.42698
000040 fc e8 cc 42 ea c1 d6 42 a8 f4 e0 c2 0d 8d cf 42
       102.45505 107.37874 -112.477844 103.77549
000050 e8 c1 c9 42 0d a9 af 42 1e 53 c5 c2 ae 44 ca c2
       100.87872 87.83018 -98.66234 -101.13414
000060 64 23 ac 42 19 e8 be 42 77 9c d6 42 b9 82 c4 42
       86.06912 95.453316 107.305595 98.25532
000070 4e 49 c5 c2 cb 2f d2 c2 b1 41 dc 42 1c 46 ce 42
       -98.64317 -105.093346 110.1283 103.13693
000080 45 09 c4 42 c1 13 d9 c2 6e fb ca 42 9d 8f df c2
       98.018105 -108.53858 101.49107 -111.780495
000090 21 7d ba 42 93 d4 cf c2 62 08 c8 42 8d 44 bc 42
       93.24439 -103.915184 100.01637 94.13389
0000a0 2c 94 ca c2 24 b3 c0 42 91 b9 c7 c2 09 9a c5 42
       -101.2894 96.349884 -99.862434 98.80085
0000b0 b6 b0 cf c2 8d 3e d9 c2 ba ed cb c2 cf de c1 c2
       -103.84514 -108.62217 -101.96431 -96.93517
0000c0 01 46 c9 c2 4b c8 b9 42 55 1a ba 42 61 47 bf 42
       -100.63673 92.8912 93.05143 95.63941
0000d0 90 86 d3 c2 ad 7e c4 42 cd cf be 42 9d dc c6 42
       -105.76282 98.24741 95.40586 99.430885
0000e0 02 70 e8 c2 51 7b cd 42 0b 4a c8 42 62 2c dc c2
       -116.218765 102.74085 100.144615 -110.086685
0000f0 41 64 de 42 fe 02 c5 42 13 d5 89 c2 66 8d c8 c2
       111.19581 98.505844 -68.91616 -100.27617
000100 e8 92 c3 42 e2 04 cf 42 80 40 ce 42 fc 56 d2 42
       97.78693 103.50954 103.12598 105.16989
000110 3e 85 d0 c2 8d 96 d1 c2 3b 14 e3 c2 c3 65 b8 42
       -104.26024 -104.794044 -113.53951 92.19875
000120 eb 6f c7 42 b6 27 d6 c2 ae 65 c6 42 d7 14 c6 42
       99.71859 -107.07756 99.19859 99.0407
000130 d8 6d c9 42 55 f2 cf c2 3a b3 cf 42 8f 4d bf 42
       100.71454 -103.973305 103.85005 95.65148
000140 94 d5 cc c2 f4 38 ba 42 a2 1a c5 c2 27 59 cc c2
       -102.417145 93.11124 -98.55202 -102.174126
000150 45 11 c3 42 14 0b bf 42 f1 d6 c4 42 6b ce d2 42
       97.53373 95.52164 98.41981 105.40316
000160 ad 95 c4 42 f1 8d b4 c2 9c 97 ce 42 8a e0 c3 42
       98.292336 -90.27723 103.29611 97.93855
000170 b2 38 d1 c2 16 9d cb c2 04 ce c2 42 5f 94 db c2
       -104.61073 -101.80681 97.402374 -109.78979
000180 1d b3 c6 42 be da c8 42 af c4 d9 42 17 21 d4 c2
       99.34983 100.42723 108.88415 -106.06463
000190 50 fa d4 c2 80 1e d6 c2 23 96 ca 42 61 eb c6 c2
       -106.48889 -107.05957 101.293236 -99.459724
0001a0 98 67 bf c2 53 70 ce c2 e2 5e d1 42 11 7a d3 c2
       -95.70233 -103.21938 104.68532 -105.73841
0001b0 8f 93 a5 42 5b e0 cf 42 b2 0a b1 c2 28 bc c7 42
       82.7882 103.938194 -88.52089 99.86749
0001c0 05 ae bd 42 0c df dd c2 24 24 ea c2 b2 99 c6 42
       94.83988 -110.93564 -117.07059 99.300186
0001d0 02 1e cb 42 99 c5 df c2 0a 12 b0 42 59 cf d2 c2
       101.55861 -111.88593 88.03523 -105.404976
0001e0 da e0 d4 42 5d ee c5 42 49 f4 c1 c2 67 1e c3 42
       106.43916 98.96555 -96.97712 97.55938
0001f0 2e 0b d2 c2 2e 2d d2 c2 16 14 e6 c2 62 44 c1 42
       -105.021835 -105.08824 -115.03923 96.63356
000200 96 aa c1 c2 a7 20 e5 c2 82 59 c4 42 9a 9f ca 42
       -96.833176 -114.563774 98.17482 101.31172
000210 f1 cb d1 c2 10 e2 bf c2 f0 5d b2 c2 1a 2f c8 c2
       -104.89832 -95.94153 -89.18347 -100.091995
000220 7b f9 c3 c2 ec d1 d0 c2 ee aa c8 c2 c1 37 cd c2
       -97.98727 -104.41 -100.33385 -102.608894
000230 75 c8 ca 42 e2 b5 c4 c2 89 e7 bf 42 a0 52 c2 c2
       101.39152 -98.35524 95.95222 -97.16138
000240 19 f6 c0 42 62 85 cf 42 2a 70 b6 42 d4 cf e8 c2
       96.48066 103.76051 91.21907 -116.405914
000250 0a 5d cf 42 1c 49 ba c2 8e 41 cc c2 69 f3 cd 42
       103.68172 -93.14279 -102.12804 102.97541
000260 85 fc d1 42 00 0f d7 c2 24 cb ca 42 49 b7 ca 42
       104.9932 -107.5293 101.39676 101.35798
000270 fe 0e c0 42 79 73 c8 c2 7c 08 da c2 37 74 c6 42
       96.02928 -100.22553 -109.01657 99.22698
000280 db 7d c8 42 ab 51 d6 42 4d 97 c6 42 16 f4 c9 42
       100.24581 107.15951 99.29551 100.97673
000290 ca 0e cb c2 c8 c6 a6 42 36 b6 cd c2 cc f5 c5 c2
       -101.528885 83.388245 -102.85588 -98.98007
0002a0 d3 b1 c9 c2 69 c3 cb c2 a5 eb ca c2 16 52 ce c2
       -100.84731 -101.88166 -101.46024 -103.160324
0002b0 1d 3d d7 c2 79 48 de c2 09 0a ce 42 b3 dc c0 c2
       -107.61936 -111.14155 103.0196 -96.43105
0002c0 45 4e 82 42 7d 47 cf c2 36 9c db c2 cf b7 bd c2
       65.15287 -103.639626 -109.8051 -94.859
0002d0 30 f7 ca 42 fa 11 d9 c2 41 24 da c2 e1 89 d6 c2
       101.48279 -108.53511 -109.07081 -107.269295
0002e0 46 5a 9d c2 cc 84 c4 c2 88 8d c6 c2 e8 40 d5 42
       -78.676315 -98.25937 -99.27643 106.62677
0002f0 19 c3 c8 42 82 83 c9 c2 c5 f9 d3 c2 6a f2 ce 42
       100.38105 -100.75685 -105.98783 103.473465
000300 d3 2b c5 42 2a 6e d9 c2 0d 5d c1 c2 b8 e9 d2 42
       98.585594 -108.715164 -96.68174 105.45648
000310 ce 1f c3 42 01 f9 d5 c2 9d d9 ce c2 e9 62 c4 c2
       97.56212 -106.986336 -103.425026 -98.193184
000320 be bf ef c2 0d ec d9 c2 c8 90 e6 c2 73 7b f0 42
       -119.8745 -108.96104 -115.282776 120.24111
000330 63 14 f7 c2 52 b0 f2 42 41 26 ef 42 09 52 e5 c2
       -123.53982 121.344376 119.574715 -114.660225
000340 76 be f5 42 f5 f5 e6 42 25 33 f8 42 fd f7 fa 42
       122.871994 115.480385 124.09989 125.48435
000350 b6 ff f8 c2 71 97 e9 42 c8 77 ef c2 2c 25 f3 c2
       -124.499435 116.795784 -119.73395 -121.5726
000360 85 ba e7 c2 f5 18 ea c2 07 67 e7 42 38 fe e1 c2
       -115.864296 -117.048744 115.701225 -112.99652
000370 87 bb f4 c2 ea 0c b0 c2 46 66 e8 42 55 5c f3 42
       -122.366264 -88.02522 116.19975 121.680336
000380 cf 0b c4 c2 c1 ee e4 c2 e3 78 e4 c2 fb ea ee c2
       -98.02306 -114.46632 -114.23611 -119.45895
000390 27 2d de 42 49 0e ef 42 24 cf dd c2 db ae eb c2
       111.08819 119.5279 -110.90457 -117.841515
0003a0 50 96 f9 c2 fa a9 00 43 12 a2 f4 c2 a5 de fa 42
       -124.79358 128.66397 -122.31654 125.43485
0003b0 ad 8d ea c2 ed a5 ea 42 eb c1 ee c2 1b 83 e7 c2
       -117.27671 117.32407 -119.378746 -115.756065
0003c0 71 7b f7 42 fe 2d fb c2 30 64 e7 42 8f 28 ed c2
       123.7411 -125.58983 115.69568 -118.579216
0003d0 0f ad f6 42 14 c2 f3 42 ee c2 e3 42 b5 96 f2 42
       123.338005 121.87906 113.88072 121.29435
0003e0 da 7e f3 42 5c 41 d8 c2 09 28 ce c2 99 99 ee c2
       121.74776 -108.127655 -103.07819 -119.299995
0003f0 2b 2e f6 42 aa 52 f2 c2 37 8f f9 c2 35 ec ec c2
       123.09017 -121.16145 -124.77972 -118.46134

linear3.bias f4 [200]
000000 2b 1f cd be fa 23 30 42 61 8c 2d 42 23 17 1d 42
       -0.40062842 44.035133 43.38709 39.272594
000010 ba e1 1b 42 23 8b 09 bf bc 3b 8c bf 6b e9 31 42
       38.970436 -0.5372793 -1.095573 44.477947
000020 3e 6b f0 be 1f 29 a5 be 2f 0e 33 42 0e 7f 30 42
       -0.4695682 -0.32257935 44.76385 44.124077
000030 27 8e 18 42 c0 a3 99 bf d2 d4 37 bf 24 35 3b 42
       38.13882 -1.2003098 -0.71809113 46.801895
000040 6b 01 f1 be 4b f6 99 be d8 8a 88 bf 4d 7b 6d bf
       -0.47071394 -0.3007072 -1.0667372 -0.9276627
000050 64 bc 37 42 79 30 94 bf 3d 1d cf be 08 eb 81 bf
       45.933975 -1.1577293 -0.40451995 -1.0149851
000060 c3 5e 6b bf a8 64 aa bf a3 67 25 42 24 44 8a bf
       -0.9194147 -1.3311968 41.351208 -1.0802045
000070 6d 80 1e 42 b8 c2 1b 42 70 34 31 42 88 e5 fa be
       39.625416 38.940155 44.30121 -0.49003243
000080 9d db 16 42 79 6c c2 be ae f9 9c bf d8 fb 19 42
       37.714466 -0.37973383 -1.2263696 38.49594
000090 e4 9f 26 42 80 2a c5 be 58 ba 7b bf d0 3f 99 bf
       41.656143 -0.38508987 -0.98331213 -1.1972599
0000a0 9c 49 2e 42 a8 46 86 bf a7 2f 3a 42 ba a4 30 42
       43.571884 -1.0490313 46.546535 44.160866
0000b0 1c 45 3e 42 b3 0d 42 42 ff a2 87 bf b8 78 0e bf
       47.56749 48.51338 -1.0596617 -0.5565295
0000c0 93 3d 83 bf f6 65 92 bf a8 10 9f bf d9 7c 6f bf
       -1.0253166 -1.1437366 -1.2426958 -0.9354988
0000d0 ea 83 23 42 5f 7f 2a 42 c4 05 1f 42 7e 6d 25 42
       40.878822 42.624386 39.75563 41.356926
0000e0 44 01 16 42 3e 27 33 42 64 7e 3a 42 37 27 38 42
       37.501236 44.788322 46.62343 46.038296
0000f0 2b e2 95 bf a0 66 28 42 2f 10 30 42 54 ea 19 42
       -1.1709646 42.10022 44.015804 38.478836
000100 6c be bf be ba 8f 96 bf b1 c4 84 bf 65 6c d9 be
       -0.37449968 -1.1762612 -1.0372525 -0.4246551
000110 96 76 8c bf d4 ad 1e 42 c1 ec 1a 42 0a ea 8d bf
       -1.097369 39.669754 38.731205 -1.1087048
000120 55 f0 24 42 ad f2 8b bf 00 35 1e 42 b8 c0 20 42
       41.2347 -1.0933434 39.551758 40.1882
000130 b6 b8 8f bf 0f 71 82 bf 89 b8 2b 42 e7 ca 8a bf
       -1.1228244 -1.0190753 42.93021 -1.0843171
000140 29 23 97 bf cd 41 28 42 ce e2 c0 be 56 7f 7f bf
       -1.1807605 42.06426 -0.37673038 -0.99803674
000150 3b a5 9a bf a4 c4 66 bf 99 9e 28 42 55 31 86 bf
       -1.2081674 -0.901438 42.15488 -1.0483805
000160 53 ec 1f 42 76 71 93 bf 09 95 2a 42 fd 29 2a 42
       39.980785 -1.1519 42.645542 42.541004
000170 b6 d9 30 42 8b 90 43 42 a0 00 94 bf b0 e9 24 42
       44.21261 48.891155 -1.1562691 41.22821
000180 4a f9 80 bf 22 2b 32 42 75 5b 3a 42 e8 4f 77 bf
       -1.0076077 44.54212 46.589314 -0.966063
000190 c3 5e 95 bf 13 06 b1 bf 89 a0 69 be dc 57 93 bf
       -1.1669544 -1.3829979 -0.22815146 -1.1511188
0001a0 67 a7 0f bf ff 3c bb be 50 99 0d 42 52 31 1d 42
       -0.5611481 -0.36569974 35.39972 39.298164
0001b0 3c 74 bb be 15 9d 31 42 fe a6 13 42 04 42 92 bf
       -0.36612117 44.4034 36.91308 -1.1426396
0001c0 c0 27 2e 42 05 d8 30 bf 69 88 2d 42 b5 40 a5 bf
       43.53882 -0.6907962 43.383213 -1.2910372
0001d0 a0 dc 65 bf 93 71 34 42 3a 28 46 42 29 b3 82 bf
       -0.8978977 45.110912 49.539284 -1.0210925
0001e0 14 00 25 42 3d 21 6c bf 4d e9 35 bf 70 b1 29 42
       41.250076 -0.9223822 -0.71059114 42.42328
0001f0 b6 63 30 42 08 b0 22 42 bf 7a 92 bf c8 05 2f 42
       44.097374 40.671906 -1.1443709 43.755646
000200 b8 ad 2c 42 d0 c9 84 bf bb 8a 36 42 c4 e7 2d 42
       43.169647 -1.0374088 45.63548 43.476334
000210 56 9f 84 bf 47 16 7b bf 69 57 3f 42 bc f5 c0 be
       -1.0361125 -0.9808087 47.83536 -0.3768748
000220 b1 5f 22 bf 2f a6 1c bf ed a2 d6 be b0 c9 1a 42
       -0.63427263 -0.61191076 -0.41921178 38.69696
000230 c4 76 04 bf f6 42 b8 be 4d 88 2e 42 ef 0f 40 42
       -0.5174372 -0.35988587 43.633106 48.01556
000240 ae 88 27 42 df 0a 2d 42 4d ff 8f bf 49 84 2b 42
       41.883476 43.260616 -1.1249787 42.879185
000250 d5 e1 2e 42 86 bc 29 42 91 3f 24 42 40 3f 8d bf
       43.72054 42.434105 41.062077 -1.1034927
000260 ca da cd be c5 9d 1b 42 00 e8 37 42 2b ca 8d bf
       -0.40205985 38.90407 45.976562 -1.1077322
000270 03 00 34 42 69 be 1e 42 17 d2 ca be 25 21 2e 42
       45.00001 39.685947 -0.3961341 43.532368
000280 a1 cf 8e bf a5 a9 79 bf 4b 32 66 bf b3 ac 20 42
       -1.1157113 -0.9752448 -0.8992049 40.16865
000290 14 92 c4 be 17 f7 30 42 0e f2 0b bf 18 07 ca be
       -0.383927 44.2413 -0.5466622 -0.39458537
0002a0 da b9 70 bf 8a 2f 25 42 77 5a 29 42 3d 21 83 bf
       -0.94033587 41.296425 42.338345 -1.0244519
0002b0 c2 b1 9b bf 5d 12 85 bf e8 6b 33 42 12 27 2f 42
       -1.2163622 -1.0396229 44.855377 43.788155
0002c0 4e 49 48 42 b7 3f 3c 42 90 de 3e 42 08 50 35 42
       50.071587 47.06222 47.717346 45.328156
0002d0 8a 23 23 42 95 8d 2c 42 80 bb 27 42 84 9e 23 42
       40.784706 43.138264 41.933105 40.9048
0002e0 7e 1e 85 bf 67 3e 2a 42 28 9d 3f 42 48 e2 63 bf
       -1.039993 42.56094 47.903473 -0.8901715
0002f0 21 47 2c 42 46 67 0c bf 26 a7 de be 89 46 a8 be
       43.06946 -0.5484508 -0.434869 -0.32866314
000300 67 53 3d 42 50 7a 8c bf 9b 8a 95 bf 17 70 2d 42
       47.331448 -1.0974827 -1.1682924 43.359463
000310 c0 d3 ce be 71 39 2e 42 05 cd 0c bf 74 5b 97 bf
       -0.40395927 43.556095 -0.55000335 -1.1824784

linear4.weight f4 [6, 200]
000000 d7 af 37 c2 f2 10 b2 41 52 ad a6 3f 4d 4b 02 c0
       -45.92172 22.258274 1.3021643 -2.035846
000010 93 9c b0 c0 3e 3a 3f c2 8a 70 3e c2 49 b3 8a c0
       -5.519113 -47.806877 -47.6099 -4.3343854
000020 54 bc 81 c2 67 26 37 c2 a7 a6 f6 40 76 0f d6 3f
       -64.86783 -45.787502 7.7078433 1.6723468
000030 3d 42 ff 40 f8 ad 45 c2 9c 75 73 c2 04 1a 87 3f
       7.9768357 -49.41989 -60.864853 1.0554814
000040 fb 8c 45 c2 f5 2a 30 c2 d5 55 7b c2 ab 32 35 c2
       -49.387676 -44.04195 -62.83382 -45.29948
000050 df 33 9f c0 b9 fb 86 c2 24 97 77 c2 f4 3b 55 c2
       -4.975082 -67.491646 -61.8976 -53.308548
000060 46 4e 30 c2 cc a1 5e c2 b0 4f 2c 41 bb f6 5f c2
       -44.07644 -55.658005 10.769455 -55.990948
000070 9b 4a 7a 40 b4 9e 30 41 99 7a 60 40 15 17 6a c2
       3.9108036 11.038746 3.5074828 -58.52254
000080 c0 63 f9 bf 2a 1f 60 c2 f8 9d 5e c2 45 d7 ab c0
       -1.9483566 -56.030434 -55.654266 -5.370028
000090 a4 30 0b bf 54 d6 26 c2 c1 29 57 c2 e1 fc 38 c2
       -0.54371095 -41.709305 -53.790775 -46.246952
0000a0 7d 7f a8 c0 11 4b 62 c2 38 90 12 3f 49 90 80 c0
       -5.2655625 -56.573307 0.5725131 -4.017613
0000b0 5a f8 e3 3e 74 6a 49 41 5b 8e 41 c2 5f 60 62 c2
       0.44525415 12.58849 -48.38902 -56.594112
0000c0 ee 44 84 c2 bc fd 54 c2 41 83 70 c2 87 53 88 c2
       -66.13463 -53.247787 -60.128178 -68.16314
0000d0 2e d1 a6 c1 96 f5 17 3f f4 2e 8d c1 76 28 0d 41
       -20.852139 0.5935911 -17.647926 8.822378
0000e0 bf 82 b0 40 6b 13 a1 c0 91 10 8c c0 84 ba 0f 3f
       5.51596 -5.0336204 -4.3770223 0.56143975
0000f0 ae 6f 67 c2 2f 44 ae c0 5d 3e ca 40 5d 08 07 c0
       -57.859062 -5.445823 6.3201127 -2.1098855
000100 68 c2 5b c2 44 6b 65 c2 0f 81 7f c2 d4 60 56 c2
       -54.93985 -57.35475 -63.876034 -53.59456
000110 08 8f 56 c2 83 7f 9f c0 2c 61 19 41 80 87 3c c2
       -53.63968 -4.9843154 9.586224 -47.132324
000120 3a ea 2a c1 8e 40 6b c2 73 e1 d5 c0 af 2f a5 40
       -10.682184 -58.81304 -6.6837707 5.1620708
000130 00 b2 49 c2 0e 50 71 c2 bc 77 f1 3e 3a dc 4d c2
       -50.42383 -60.32818 0.47161663 -51.465065
000140 8b b0 60 c2 ac 61 1c c1 7e 2b 49 c2 cf 9f 63 c2
       -56.172405 -9.773846 -50.292473 -56.906063
000150 b0 05 7f c2 8e 1b 2e c2 e1 29 02 40 b0 6c 64 c2
       -63.755554 -43.52691 2.033806 -57.10614
000160 5b 18 58 c0 4e df 7c c2 e9 d5 8f 40 6e 03 24 41
       -3.3764865 -63.21807 4.494862 10.250837
000170 0c fe 25 bf 98 15 40 41 5c 4b 3c c2 87 cc dc 40
       -0.6484077 12.005272 -47.073593 6.8999667
000180 91 2c 59 c2 d0 40 0a 41 4e 1e f8 3f 6d 38 4e c2
       -54.29352 8.640823 1.9384248 -51.555103
000190 45 4c 86 c2 fe 64 89 c2 3e 88 5d c2 5f d9 71 c2
       -67.148964 -68.69725 -55.38305 -60.462276
0001a0 9c 24 78 c2 be b1 63 c2 be 5a 51 c1 fd 51 a4 c0
       -62.03575 -56.923576 -13.084654 -5.1350083
0001b0 41 4c 5d c2 98 e1 5c 41 36 87 8a c1 f3 8f 45 c2
       -55.324467 13.805077 -17.316021 -49.390575
0001c0 9d 4f 58 c0 c8 dd 6f c2 33 56 7e c0 97 97 5b c2
       -3.3798592 -59.966583 -3.9740112 -54.898037
0001d0 a0 fe 34 c2 ea d6 1c 41 09 1e c6 c0 6b 49 86 c2
       -45.248657 9.802469 -6.1911664 -67.143394
0001e0 4e 98 81 c1 d0 55 48 c2 47 4d 4e c2 2b 9d cf c0
       -16.199368 -50.0838 -51.575466 -6.4879355
0001f0 16 de 2d 41 26 0e 54 3f c9 16 7e c2 ce d8 1e c1
       10.86672 0.8283409 -63.52225 -9.927931
000200 e6 7a 53 3f 84 e2 37 c2 b3 ba 55 40 a3 8c bb 40
       0.82609403 -45.971207 3.3395202 5.8609176
000210 0f 13 2f c2 f5 ee 47 c2 fe 25 c1 3f 28 61 66 c2
       -43.768612 -49.983356 1.5089719 -57.59488
000220 65 b4 16 c2 2c 44 46 c2 7d 79 5f c2 1b fc a1 40
       -37.676167 -49.566574 -55.86864 5.0620246
000230 50 61 7a c2 0f 57 68 c2 1c e8 2c c1 f1 1f fb 40
       -62.59503 -58.08502 -10.806667 7.847649
000240 ab 74 76 40 ab 53 38 c0 ee 6f 82 c2 f5 96 18 c0
       3.8508708 -2.8801067 -65.21861 -2.3842137
000250 38 b7 28 bf fe 58 3a c1 93 ae ab c0 3b 70 58 c2
       -0.6590457 -11.646727 -5.3650603 -54.1096
000260 27 4a 53 c2 ec ef 00 41 c3 e2 eb c0 e8 25 82 c2
       -52.822414 8.058575 -7.371431 -65.074036
000270 35 8b d2 40 37 59 92 c0 03 bf 43 c2 9e 3f c8 bf
       6.579493 -4.5733905 -48.936535 -1.5644414
000280 39 c1 60 c2 c5 09 69 c2 09 31 10 c2 9b 5a a6 c0
       -56.188694 -58.25954 -36.047886 -5.19856
000290 51 cd 6c c2 fd cf bd c0 05 ce 60 c2 b8 1e 2d c2
       -59.200504 -5.931639 -56.20119 -43.28
0002a0 48 b1 5b c2 24 dc 4c 41 06 14 29 c1 74 34 58 c2
       -54.923126 12.803745 -10.567389 -54.051224
0002b0 c1 04 66 c2 37 44 34 c2 7b b1 84 c0 7a 66 3c c1
       -57.504642 -45.066616 -4.146665 -11.775019
0002c0 12 02 b6 be f2 61 1c 41 4d a4 c5 c0 47 8b fe 40
       -0.35548455 9.773912 -6.1763062 7.9545016
0002d0 a4 a5 08 c1 16 09 94 41 fa 0b 1c 41 31 cd e2 c0
       -8.54044 18.504436 9.752924 -7.087548
0002e0 77 81 68 c2 12 24 70 c1 7d ba 5a c0 82 4c 55 c2
       -58.12643 -15.008806 -3.4176323 -53.324715
0002f0 38 07 f9 3f fb e0 80 c2 94 64 72 c2 4e a4 4b c2
       1.9455328 -64.439415 -60.59822 -50.910454
000300 e8 87 45 41 ce 21 55 c2 86 af 3c c2 61 ff e0 40
       12.34568 -53.283012 -47.17141 7.031174
000310 46 c2 61 c2 38 05 3d 41 35 3a 42 c2 58 dd 42 c2
       -56.43972 11.813774 -48.556843 -48.716156
000320 95 46 02 c3 68 c9 94 c0 28 9f d2 c0 7c 34 2b c1
       -130.27571 -4.6495857 -6.5819283 -10.700314
000330 09 17 4c 40 ec 38 08 c3 b9 14 0a c3 e6 3f a8 40
       3.188906 -136.22235 -138.08095 5.2578
000340 20 70 02 c3 72 ed fd c2 92 11 a5 40 75 d7 7d bf
       -130.43799 -126.96376 5.158395 -0.99156886
000350 c3 e6 1c c0 9e 90 07 c3 bd 94 07 c3 2a cb 08 41
       -2.4515846 -135.56491 -135.58101 8.549601
000360 86 45 fc c2 d6 2d 00 c3 1a 53 02 c3 9c db ff c2
       -126.13579 -128.17905 -130.32462 -127.928925
000370 81 4c 6d 3f ab ff 04 c3 63 28 04 c3 86 77 eb c2
       0.9269486 -132.9987 -132.15776 -117.733444
000380 40 cc 03 c3 64 b2 0c c3 a2 08 a7 c0 af cd 06 c3
       -131.79785 -140.69684 -5.219804 -134.80345
000390 a1 87 36 c0 0c 8c c6 be ab 47 03 41 a6 4f 00 c3
       -2.8520281 -0.38778722 8.204997 -128.31113
0003a0 59 16 05 c1 80 8c 05 c3 f9 ab 06 c3 18 53 90 c0
       -8.317956 -133.54883 -134.67177 -4.5101433
0003b0 57 3e 05 40 7e 59 00 c3 8e 32 06 c3 48 78 10 c3
       2.08193 -128.34958 -134.19748 -144.46985
0003c0 fa 15 eb 40 f3 23 02 c3 0b bc 68 40 36 db 98 bf
       7.3464327 -130.14043 3.6364772 -1.1941898
0003d0 94 36 f3 40 73 79 5a 40 ec 8a 03 c3 56 0e 08 c3
       7.6004124 3.4136627 -131.54266 -136.056
0003e0 74 f3 fd c2 f7 b4 ff c2 09 ae 08 c3 94 44 f9 c2
       -126.975494 -127.85345 -136.67982 -124.63394
0003f0 b0 e6 92 c0 d4 87 c0 3f 69 5a 58 bf ca 0a ef 3f
       -4.59066 1.5041451 -0.84512955 1.8675168

linear4.bias f4 [6]
000000 34 76 66 c2 34 12 07 c3 8f 76 21 c2 a2 4e 02 c2
       -57.615433 -135.0711 -40.36578 -32.57679
000010 31 a7 21 c0 b5 35 89 c2
       -2.5258296 -68.6049
