agent_code/test_agent/my-saved-model.pt (torch, 3799 bytes, 5 tensors)

linear1.weight f4 [6, 50]
0	0x41e54d96	28.662884
1	0x4135becd	11.359082
2	0x41c18f8c	24.195091
3	0x3f814691	1.009966
4	0xc0439337	-3.0558603
5	0x4198e66e	19.112514
6	0x4114f1cd	9.309033
7	0x41778fa0	15.472565
8	0x3fad4a1a	1.3538239
9	0x40492e51	3.143452
10	0x40fa439a	7.820752
11	0x412eedb7	10.933036
12	0xbdaccb2a	-0.08437188
13	0x3cb63e3d	0.022246474
14	0xc09be659	-4.8718686
15	0x40ce0991	6.438668
16	0x41427d61	12.15561
17	0x3f0ffabb	0.5624196
18	0x40905e4f	4.5115123
19	0x408a1d5f	4.3160853
20	0x4081720d	4.045172
21	0x3e0fd6b8	0.14046752
22	0xbfd3cbd5	-1.654658
23	0x40980ff4	4.7519474
24	0xbfa99a97	-1.3250302
25	0x3d122bb8	0.035686225
26	0x3e059769	0.1304604
27	0xbe801ee6	-0.25023574
28	0xbcafc129	-0.02145441
29	0x3c327ea6	0.010894453
30	0x3e667797	0.22506557
31	0x3de1236a	0.10993083
32	0x3e8ff3c7	0.28115675
33	0xbe7cbc85	-0.2468129
34	0x3d2a644f	0.041599568
35	0xbe0b6138	-0.13611305
36	0x3e0e252e	0.1388137
37	0xbe06355b	-0.13106291
38	0x3ecb1643	0.39665422
39	0xbe8e446a	-0.2778657
40	0xbe87e747	-0.26543638
41	0x3e94ec41	0.29086497
42	0xbe80ae94	-0.25133193
43	0x3dd71f03	0.10503962
44	0x3dbfa79d	0.093581416
45	0xbe2835f3	-0.1642683
46	0xbe329385	-0.17439087
47	0xbe6a9367	-0.22907792
48	0x3ea6a907	0.32550833
49	0xbe1f8ad0	-0.15580297
50	0xc047e8f1	-3.1235926
51	0xc0403302	-3.0031133
52	0x3f3e0590	0.7422724
53	0xc0841b16	-4.1283064
54	0xc0108587	-2.2581499
55	0xbe8297e0	-0.25506496
56	0x407e58ac	3.974162
57	0x40e29fea	7.0820208
58	0x407be879	3.936064
59	0xbe2976b1	-0.16549183
60	0xc0747e2a	-3.8202004
61	0xc090d1d4	-4.525614
62	0xbe32a443	-0.17445473
63	0xc08d7c13	-4.421396
64	0x3e811e5b	0.25218472
65	0x4036f5b6	2.858747
66	0x4042fc62	3.0466542
67	0x404c64c4	3.1936502
68	0x40465d63	3.0994499
69	0x3ffee6a7	1.991414
70	0xbf12d50b	-0.5735633
71	0xbf9ceba5	-1.2259413
72	0x3da00210	0.078128934
73	0xc0202736	-2.5023932
74	0xbfbc1a1c	-1.4695468
75	0xbe16a049	-0.14709581
76	0x3fd03fbe	1.6269453
77	0x3ffb5478	1.9635153
78	0x3f20a464	0.6275084
79	0x3e993dbf	0.2992992
80	0x3f835e8f	1.0263232
81	0xc07cd4cb	-3.9504879
82	0x412c415d	10.765958
83	0x4085d938	4.182766
84	0x3ddf0fa3	0.10891654
85	0x3d74f89f	0.059807416
86	0xc095be7e	-4.6795034
87	0x3e48eabf	0.19620799
88	0x3f2d64a1	0.6773167
89	0x3fa2c3d4	1.2716012
90	0x3ec40f7c	0.38293064
91	0xbd6ac538	-0.05731699
92	0x402f5898	2.7397823
93	0x3fb223cb	1.3917173
94	0x3fd4265d	1.6574208
95	0x3fc47ec6	1.5351188
96	0x3f9cc049	1.2246181
97	0x3e9b98d0	0.30390024
98	0x3f0c776c	0.54869723
99	0x3eccbb9c	0.39986885
100	0x3ea7464b	0.32670817
101	0x3f9573fe	1.1676023
102	0xbee64569	-0.4497483
103	0x3f6a13e2	0.9143659
104	0x3fa09a7d	1.2547146
105	0x4095e3fa	4.684079
106	0x3fac8bf3	1.3480209
107	0x408bd332	4.3695307
108	0x3f578543	0.84187716
109	0x4076acdc	3.8543005
110	0x3fadf906	1.3591621
111	0x3f5e2288	0.8677144
112	0xbd9ea710	-0.077467084
113	0xbdae5477	-0.08512204
114	0x3cd25418	0.025674865
115	0x409fb183	4.990419
116	0x3facc93b	1.3498911
117	0x4093e06a	4.6211443
118	0x3f56a9fa	0.83853114
119	0x406695d3	3.6028945
120	0x3ec09c1c	0.37619102
121	0x3f6279be	0.88467014
122	0x3e79c194	0.2439025
123	0x3ef37202	0.4754792
124	0xbf19a6db	-0.60020226
125	0xbe925215	-0.2857825
126	0x40410189	3.0157187
127	0x3fe0b767	1.755597
128	0x3e6410e6	0.22272071
129	0xbe5f8b49	-0.21830477
130	0xbedb2bb7	-0.4280679
131	0x40814a47	4.040317
132	0x40c9b3fd	6.303221
133	0xbde94b25	-0.11391286
134	0xbee201f4	-0.44142115
135	0xbe6902e4	-0.22755009
136	0xbfb2cf4a	-1.396951
137	0xbdd0f98b	-0.102038465
138	0x3fb256c9	1.3932735
139	0xbee869ac	-0.4539312
140	0xbeaf3ffb	-0.342285
141	0xc083b979	-4.1163907
142	0xc09d5d1f	-4.9176173
143	0xbe8eaf94	-0.2786833
144	0xbf3d1c8f	-0.738717
145	0xbe3b4ada	-0.18290272
146	0xbd000458	-0.031254143
147	0xbe1b975b	-0.15194456
148	0xbecfe07e	-0.4060096
149	0xbe393b2c	-0.18088979
150	0xc131fc8b	-11.124156
151	0xc10e86b7	-8.907889
152	0xc0141f79	-2.314421
153	0xc11ccc82	-9.799929
154	0x407ecd02	3.9812627
155	0xc0ab81a7	-5.3595767
156	0xc03eff50	-2.984333
157	0x3e17d74c	0.14828223
158	0xc0ca39d1	-6.3195577
159	0xc10d82a0	-8.844391
160	0xc126ebf6	-10.432608
161	0xc12f6317	-10.961692
162	0xbda9940f	-0.08280193
163	0xc11da953	-9.853839
164	0x40d899ab	6.7687583
165	0xc0dd776f	-6.9208293
166	0xc08186ad	-4.04769
167	0xc011d969	-2.2788947
168	0xc0ec46bd	-7.383635
169	0xc105021d	-8.313016
170	0xc1162ab1	-9.385423
171	0xc14a4775	-12.642446
172	0xc0803c29	-4.007344
173	0xc12253a8	-10.145424
174	0x40762fef	3.8466756
175	0x3e676fa7	0.22601186
176	0x3e236420	0.15956163
177	0x3e324a10	0.17411065
178	0x3c890f59	0.016730951
179	0x3dda496b	0.106585346
180	0x3cb31d48	0.021864548
181	0xbe37cb1e	-0.17948577
182	0x3eda7ed2	0.4267488
183	0x3cec2f3b	0.028831115
184	0x3e67942b	0.22615115
185	0xbd51b2c5	-0.05119588
186	0x3e0267c0	0.1273489
187	0x3d9fea43	0.07808354
188	0xbd8853a8	-0.06656581
189	0xbd2c472b	-0.04206006
190	0x3c8348fa	0.016026009
191	0x3d99e0ed	0.07513604
192	0x3e2bc99e	0.1677613
193	0xbda17d96	-0.07885282
194	0xbc032cc2	-0.008006277
195	0xbe1597a4	-0.14608628
196	0x3ea80ae4	0.3282081
197	0x3c35394e	0.011061026
198	0xbe38a9c7	-0.18033515
199	0xbc70b1ba	-0.014690811
200	0x41502117	13.008079
201	0x40a2d9fd	5.08911
202	0x4109cba9	8.612222
203	0xc1207df7	-10.030753
204	0xc1029082	-8.16028
205	0x41894e8c	17.163353
206	0x40ace357	5.4027514
207	0x41488198	12.531639
208	0xbd87ba50	-0.06627333
209	0xbfd42a3e	-1.6575391
210	0x4192b0ef	18.336393
211	0xc001df67	-2.0292604
212	0xbe4a3e5a	-0.19750348
213	0xc1999da2	-19.20197
214	0xc17bc0ce	-15.734571
215	0x40f4db54	7.6517735
216	0x40b4b0f9	5.646603
217	0x408ef54c	4.4674435
218	0x3f9e4b91	1.2366811
219	0xbf41b0b4	-0.7566025
220	0x4142ca52	12.174395
221	0x3e4b2d8c	0.19841594
222	0x40a022e8	5.004261
223	0xc157d5fd	-13.489743
224	0x3f216508	0.63044786
225	0x3f895299	1.0728332
226	0xc081237f	-4.035583
227	0xc0c121b0	-6.0353622
228	0x3d3d5ce8	0.04623118
229	0x3f223f32	0.6337768
230	0x3f7ed1f8	0.99539137
231	0xbf49de35	-0.78854686
232	0xc09026b6	-4.5047255
233	0x3f641882	0.89099896
234	0x3ff465b8	1.9093542
235	0x4089f0d4	4.310648
236	0x410b30b1	8.699388
237	0xbeb1832f	-0.34670398
238	0xc0d181cf	-6.547096
239	0x3fb7b2b7	1.4351414
240	0x3ca44bb7	0.020055635
241	0x3e690c39	0.22758569
242	0xc09e2e18	-4.9431267
243	0xbe2dd6c2	-0.16976455
244	0x3f81c21a	1.013736
245	0x3e1cdadf	0.15317868
246	0x3e946c1b	0.28988728
247	0xbe8ee5c4	-0.27909672
248	0x3ff7180d	1.9304215
249	0xbe5cbaa4	-0.21555573
250	0x409016d8	4.5027885
251	0x4112221e	9.133329
252	0x3ef7f90d	0.48432198
253	0x408b451d	4.3521867
254	0x409caa2b	4.8957725
255	0x410ace14	8.675312

linear2.weight f4 [6, 6]
0	0x4042a943	3.041581
1	0xc1f026da	-30.01897
2	0xbdd63d04	-0.104608566
3	0xc08ae224	-4.340105
4	0xc1649029	-14.285195
5	0x41d44d23	26.537664
6	0xbee2e8ea	-0.44318324
7	0xc2469bf5	-49.6523
8	0xc0893038	-4.287136
9	0x3ffab2ff	1.9585875
10	0xc17996b6	-15.599295
11	0xc0801408	-4.002445
12	0xc133c505	-11.2356
13	0xc11f9549	-9.973947
14	0xbfa5dbef	-1.2957743
15	0x40e32e74	7.0994205
16	0xc225a622	-41.41224
17	0xc1e08eb4	-28.06968
18	0x3f648bff	0.8927612
19	0xc036486b	-2.84817
20	0x409b777f	4.858337
21	0xc1127b80	-9.155151
22	0x41397783	11.591678
23	0xc0dc42f0	-6.883171
24	0xc17141d2	-15.078569
25	0xc1542301	-13.258546
26	0x42014412	32.316475
27	0x416a38cb	14.638865
28	0x41ba187c	23.261955
29	0x41810e8a	16.1321
30	0xc103ff4e	-8.24983
31	0xc20a3274	-34.54927
32	0xc0c71675	-6.2214913
33	0x3f415c70	0.75531673
34	0x41fd4cd2	31.66251
35	0xc00f274f	-2.2367742

linear3.weight f4 [6, 6]
0	0x3baf088c	0.005341595
1	0xbdba1408	-0.09085852
2	0x3e493b14	0.19651443
3	0xbd058645	-0.032598753
4	0xbe2381ed	-0.15967532
5	0xbe61ed6c	-0.22063226
6	0xbd7d88c2	-0.061898
7	0xbe284720	-0.16433382
8	0xbe87f96e	-0.26557487
9	0x3dbb0a9a	0.091328815
10	0xbe841150	-0.25794458
11	0xbd945d1f	-0.07244324
12	0x3e68cbeb	0.22734039
13	0xbe1024ec	-0.14076585
14	0xbe584d76	-0.21123299
15	0xbe9958cc	-0.2995056
16	0x3e8e2b75	0.2776753
17	0x3a0efa3a	0.0005454157
18	0xbee96a03	-0.45588693
19	0x3dbde3c2	0.09271957
20	0x3ddc3def	0.107540004
21	0x3d5f1763	0.054465663
22	0xbd92079c	-0.071303576
23	0x3d5a869b	0.053351026
24	0xbc26d5ce	-0.010182811
25	0xbe25cc46	-0.16191205
26	0xbe22a34e	-0.15882608
27	0xbd412af8	-0.04716012
28	0x3e4f6e43	0.20256905
29	0x3db6005f	0.088867895
30	0xbe1c2f13	-0.15252332
31	0xbe7f59f2	-0.24936655
32	0x3dab23f8	0.0835647
33	0x3e0d154c	0.13777655
34	0x3d30aedf	0.04313552
35	0xbe05a8e2	-0.13052705

linear4.weight f4 [6, 6]
0	0xbdbc79d8	-0.09202927
1	0xbdc13c7f	-0.09435367
2	0xbe40355e	-0.18770358
3	0xbc1c0ac0	-0.009524047
4	0x3e5c89c2	0.21536925
5	0xbc9d1508	-0.019175068
6	0xbe09ba2c	-0.13449925
7	0x3e4f8642	0.20266059
8	0xbd99006e	-0.07470785
9	0xbe4d78af	-0.20065568
10	0x3e86f566	0.263591
11	0x3e6ef127	0.2333418
12	0xbea41d68	-0.32053685
13	0xbda9973f	-0.08280801
14	0xbd37ca4f	-0.04487067
15	0x3e692f16	0.22771868
16	0x3dfff1b2	0.124972716
17	0x3d4d32b6	0.05009719
18	0x3db993c8	0.0906139
19	0xbe6274bf	-0.22114848
20	0xbe945ed4	-0.28978598
21	0xbe2f09a7	-0.17093526
22	0xbc17a4e1	-0.009255619
23	0x3d5cb174	0.05388017
24	0x3d9befd8	0.07614106
25	0xbdfd9cac	-0.123833984
26	0x3d6eb127	0.058274414
27	0xbd259412	-0.040424414
28	0xbd5ef964	-0.054437056
29	0xbd5a138c	-0.053241298
30	0xbcd44016	-0.025909465
31	0xbe2ab222	-0.16669515
32	0x3c0a0c12	0.008425729
33	0x3e2ecb3a	0.17069712
34	0xbeb852e0	-0.3600073
35	0x3cd8c744	0.026462205

linear5.weight f4 [6, 6]
0	0x40e53524	7.162737
1	0x416b6101	14.711183
2	0xc11604b8	-9.376152
3	0x3e80ee12	0.25181633
4	0x3fc38362	1.527447
5	0x412edc78	10.928825
6	0xc0182070	-2.3769798
7	0x3ff4cba0	1.9124641
8	0xc14840ea	-12.515848
9	0xc0b99200	-5.7990723
10	0x41714855	15.080159
11	0xc0108a4f	-2.2584417
12	0x412617a3	10.380771
13	0x40f758f6	7.7296095
14	0x41181a0a	9.506357
15	0x3f0be896	0.5465177
16	0x4051f1fc	3.2803946
17	0xc125f423	-10.372104
18	0x40bc3a8e	5.882148
19	0xc0cc06c9	-6.3758283
20	0x406b1bbe	3.6735682
21	0x412fb59b	10.981837
22	0x410b2843	8.6973295
23	0xc0c654d2	-6.197854
24	0x3cfbb8e6	0.030727815
25	0x3e8a314a	0.2699073
26	0xbe867db0	-0.26267767
27	0x3bd9441a	0.006630433
28	0x4022de69	2.5448248
29	0x3dc3a998	0.09553832
30	0xc0d5a7d8	-6.6767387
31	0xbf91a08c	-1.137712
32	0xc0dc0b15	-6.876353
33	0xc12b0414	-10.688496
34	0xbf8eba8a	-1.1150677
35	0x4019b8af	2.4018972
