agent_code/test_agent/my-saved-model.pt (torch, 3799 bytes, 5 tensors)

linear1.weight f4 [6, 50]
00000000: 964d e541 09bf 3541 8c8f c141 4833 813f
00000010: 3793 43c0 6ee6 9841 d0f4 1441 a08f 7741
00000020: e536 ad3f 512e 4940 9a43 fa40 f3ed 2e41
00000030: 2acb acbd b3a0 ae3c 59e6 9bc0 9109 ce40
00000040: 6480 4241 bbfa 0f3f 6964 9040 5f1d 8a40
00000050: 3472 8140 fed0 0e3e 57cb d3bf dc0f 9840
00000060: 189a a9bf fb1a 123d 819b 053e 01fa 7fbe
00000070: 9497 afbc 2c65 333c 327c 663e 2238 e13d
00000080: 69fa 8f3e 8da7 7cbe 1775 2b3d 9d4c 0bbe
00000090: 22d7 0d3e a438 06be cc98 cb3e 9b14 8ebe
000000a0: a5e0 87be 1ef6 943e 32aa 80be 1079 d73d
000000b0: ed7f bf3d f822 28be 268e 32be 2d91 6abe
000000c0: ac9c a63e 6f85 1fbe 8ec3 53c0 fec5 59c1
000000d0: 2887 0a41 2aed 103f a820 7c40 960a ad40
000000e0: bd0a b840 eab3 8b41 9be1 4f3f ae79 3a3f
000000f0: 1e0b 35c0 1090 a6c1 43a4 32be 116e 8fc0
00000100: 5f12 1c41 fcd0 5a40 21a6 c140 353d 9b41
00000110: 5083 973f 6a2c 4e41 6edb acbf bf7a 7ec1
00000120: a644 b040 5709 9fbf a14a d83f 19c4 aabf
00000130: 6225 e2bf eab5 00c1 4b9b 08c0 85d3 f7bf
00000140: 4c13 7140 a020 d3bf 8477 9440 dc35 e9c0
00000150: df7e dcbf f123 49c0 1b05 8bc0 2e47 983f
00000160: 0640 66c0 152c dec0 c71f 23c0 098a 29c0
00000170: 5ea4 9241 a1d2 6b41 f3e3 1340 624a 40c0
00000180: 40d5 4ac0 d562 543f 9fca 78c0 b054 efbf
00000190: 1917 aa40 b8ad 9940 31f6 5e3f bde7 b840
000001a0: caa7 fb3f 9b6d 933f 4852 9b40 5b91 a33f
000001b0: 00c7 3540 1edf 98be 51e3 90c0 4b15 7240
000001c0: 10a7 9ebd 4356 8140 75ad 6a41 d6c0 ea40
000001d0: bc25 ab40 3288 9640 c513 5540 81fa 1440
000001e0: 805e 3ebf ba88 b140 7863 1c41 2581 cc40
000001f0: da71 0b41 a97f 7340 da57 c23f d270 06c1
00000200: 6266 f1bf 8e5e 1640 d167 b7bf 6068 f440
00000210: 963b cf41 d506 af41 c8a2 3241 adef 4ec0
00000220: 5d32 0341 c3ff 9040 aaf3 0c42 aefb 7c41
00000230: 6171 a83f 69db 10be 7fe1 9840 882c a8bf
00000240: 3b01 513d 3665 6940 2c4e 8240 0477 8abf
00000250: 02ad 4e40 297f 893f 8bfc 31c1 b786 0ec1
00000260: 791f 14c0 82cc 1cc1 02cd 7e40 a781 abc0
00000270: 50ff 3ec0 4cd7 173e d139 cac0 a082 0dc1
00000280: f6eb 26c1 1763 2fc1 0f94 a9bd 53a9 1dc1
00000290: ab99 d840 6f77 ddc0 ad86 81c0 69d9 11c0
000002a0: bd46 ecc0 1d02 05c1 b12a 16c1 7547 4ac1
000002b0: 293c 80c0 a853 22c1 ef2f 7640 a76f 673e
000002c0: 2064 233e 104a 323e 590f 893c 6b49 da3d
000002d0: 481d b33c 1ecb 37be d27e da3e 3b2f ec3c
000002e0: 2b94 673e c5b2 51bd c067 023e 43ea 9f3d
000002f0: a853 88bd 2b47 2cbd fa48 833c ede0 993d
00000300: 9ec9 2b3e 967d a1bd c22c 03bc a497 15be
00000310: e40a a83e 4e39 353c c7a9 38be bab1 70bc
00000320: 4b34 b540 7a80 b23f 1b53 0e40 a0d8 99c1
00000330: ca76 28c1 3dd5 9b41 127a 0741 67e9 4341
00000340: 4e0c a340 cb46 f9bf 67f6 e341 e322 6140
00000350: 5a3e 4abe 10c9 0bc2 0cd3 bcc1 1f7f e9c0
00000360: 20b0 d040 db1d 3cc1 5180 8940 909c 3440
00000370: 868f 60be db80 6cc1 22ac 1ac1 bc3d cdc1
00000380: 4bc3 953f 9da0 51c1 bd46 96bf af2b e0c0
00000390: 4adf 1e41 704f edc0 dc07 933f 12d4 e9c0
000003a0: c4cb 85c0 b6bc aec0 ad33 653f 4e28 5ec1
000003b0: fe5a b7c0 ea7f 6840 76fd 0ec1 8612 f3c0
000003c0: 5c98 ad40 d7d2 1c40 b4f5 2a40 98e9 0e41
000003d0: 585c 2140 e537 9ec0 9f54 35c0 d1af 4c40
000003e0: 85df c6c0 c65b 7440 4b77 f040 9b05 0841
000003f0: d143 6040 e95c 2141 bce3 9740 8567 1341
28.662884 11.359139 24.195091 1.0093775 -3.0558603 19.112514 9.309769 15.472565
1.3532377 3.143452 7.820752 10.933093 -0.08437188 0.021316862 -4.8718686 6.438668
12.156345 0.5624196 4.512257 4.3160853 4.045191 0.13946912 -1.6546429 4.751936
-1.3250151 0.03567026 0.13047601 -0.24997713 -0.021434583 0.010949414 0.22508314 0.109970346
0.28120735 -0.2467329 0.041859712 -0.13603444 0.13851598 -0.13107544 0.39765012 -0.27750096
-0.26538578 0.29094023 -0.2512985 0.10521138 0.09350572 -0.1641959 -0.17437038 -0.22906943
0.32541406 -0.15578245 -3.3088107 -13.610838 8.657997 0.56611884 3.9394932 5.407542
5.751311 17.462849 0.8120362 0.7284192 -2.8288035 -20.820343 -0.17445473 -4.482186
9.754485 3.4190054 6.0515294 19.404886 1.1836948 12.885843 -1.3504465 -15.904967
5.50838 -1.2424725 1.6897775 -1.3341094 -1.7667658 -8.044413 -2.1344783 -1.9361426
3.7668028 -1.6494331 4.6395893 -7.2878246 -1.7226218 -3.1428187 -4.344373 1.1896722
-3.5976577 -6.942881 -2.5488145 -2.64905 18.330257 14.738923 2.310788 -3.00454
-3.1692657 0.82963306 -3.887367 -1.869772 5.3153195 4.802456 0.8709441 5.7782884
1.966058 1.1517824 4.853794 1.2778734 2.840271 -0.29857725 -4.5277486 3.7825496
-0.077467084 4.04178 14.667348 7.3360395 5.3483562 4.7041254 3.3293316 2.3277895
-0.74362946 5.5479403 9.774284 6.3907647 8.715296 3.8046668 1.518306 -8.402544
-1.885937 2.3495212 -1.4328557 7.637741 25.904095 21.878336 11.1647415 -3.2333786
8.199796 4.531221 35.237953 15.811445 1.31596 -0.14146198 4.7775264 -1.313859
0.051026564 3.6468024 4.0720425 -1.0817571 3.2293096 1.0741931 -11.124156 -8.907889
-2.314421 -9.799929 3.9812627 -5.3595767 -2.984333 0.14828223 -6.3195577 -8.844391
-10.432608 -10.961692 -0.08280193 -9.853839 6.7687583 -6.9208293 -4.04769 -2.2788947
-7.383635 -8.313016 -9.385423 -12.642446 -4.007344 -10.145424 3.8466756 0.22601186
0.15956163 0.17411065 0.016730951 0.106585346 0.021864548 -0.17948577 0.4267488 0.028831115
0.22615115 -0.05119588 0.1273489 0.07808354 -0.06656581 -0.04206006 0.016026009 0.07513604
0.1677613 -0.07885282 -0.008006277 -0.14608628 0.3282081 0.011061026 -0.18033515 -0.014690811
5.6626334 1.3945458 2.2238224 -19.230774 -10.529001 19.47912 8.467302 12.244483
5.095252 -1.9474729 28.495314 3.5177543 -0.19750348 -34.94635 -23.60305 -7.2967677
6.5214996 -11.757289 4.2969136 2.8220558 -0.2192975 -14.781459 -9.667025 -25.655144
1.1700224 -13.101712 -1.1740338 -7.0053325 9.929514 -7.415947 1.1486773 -7.3071375
-4.1811237 -5.460536 0.89531976 -13.88484 -5.7298574 3.6328073 -8.93688 -7.596011
5.4248486 2.4503686 2.6712465 8.93203 2.5212612 -4.944323 -2.8332899 3.198231
-6.214785 3.8181014 7.514562 8.5013685 3.5041392 10.085183 4.7465496 9.212773

linear2.weight f4 [6, 6]
00000000: 07a9 4240 15d0 16c2 5b98 0141 c2d6 04c1
00000010: aa3e 8d41 4b27 e641 3ba8 e2be 766a 46c2
00000020: 4ad4 8f42 b561 e640 eb82 68c1 4942 b0c1
00000030: 05c5 33c1 72e4 febf d04a e2c0 db97 9a41
00000040: 7ad6 b9c2 311f b5c2 d56f 643f e173 9240
00000050: 8f39 5c41 6cf9 64c1 1a4c 0941 13ba 3a41
00000060: d241 71c1 570c 93c0 f339 0842 89f5 a941
00000070: 6b58 b841 cda1 8141 51ff 03c1 04d7 64c2
00000080: 182e 12c1 db88 fb40 8b37 c841 0121 7d41
3.0415666 -37.703205 8.099696 -8.302431 17.655598 28.769186 -0.44268975 -49.603966
71.91463 7.199427 -14.531962 -22.032366 -11.2356 -1.9913466 -7.0716324 19.324148
-92.9189 -90.56092 0.8923314 4.5766454 13.764052 -14.310894 8.5810795 11.670428
-15.078569 -4.5952563 34.05659 21.24489 23.043173 16.204004 -8.249833 -57.209976
-9.136253 7.860456 25.02712 15.820558

linear3.weight f4 [6, 6]
00000000: 8c08 af3b 0814 babd 143b 493e 4586 05bd
00000010: ed81 23be 6ced 61be c288 7dbd 2047 28be
00000020: 6ef9 87be 9a0a bb3d 5011 84be 1f5d 94bd
00000030: ebcb 683e ec24 10be 764d 58be cc58 99be
00000040: 752b 8e3e 3afa 0e3a 036a e9be c2e3 bd3d
00000050: ef3d dc3d 6317 5f3d 9c07 92bd 9b86 5a3d
00000060: ced5 26bc 46cc 25be 4ea3 22be f82a 41bd
00000070: 436e 4f3e 5f00 b63d 132f 1cbe f259 7fbe
00000080: f823 ab3d 4c15 0d3e dfae 303d e2a8 05be
0.005341595 -0.09085852 0.19651443 -0.032598753 -0.15967532 -0.22063226 -0.061898 -0.16433382
-0.26557487 0.091328815 -0.25794458 -0.07244324 0.22734039 -0.14076585 -0.21123299 -0.2995056
0.2776753 0.0005454157 -0.45588693 0.09271957 0.107540004 0.054465663 -0.071303576 0.053351026
-0.010182811 -0.16191205 -0.15882608 -0.04716012 0.20256905 0.088867895 -0.15252332 -0.24936655
0.0835647 0.13777655 0.04313552 -0.13052705

linear4.weight f4 [6, 6]
00000000: d879 bcbd 7f3c c1bd 5e35 40be c00a 1cbc
00000010: c289 5c3e 0815 9dbc 2cba 09be 4286 4f3e
00000020: 6e00 99bd af78 4dbe 66f5 863e 27f1 6e3e
00000030: 681d a4be 3f97 a9bd 4fca 37bd 162f 693e
00000040: b2f1 ff3d b632 4d3d c893 b93d bf74 62be
00000050: d45e 94be a709 2fbe e1a4 17bc 74b1 5c3d
00000060: d8ef 9b3d ac9c fdbd 27b1 6e3d 1294 25bd
00000070: 64f9 5ebd 8c13 5abd 1640 d4bc 22b2 2abe
00000080: 120c 0a3c 3acb 2e3e e052 b8be 44c7 d83c
-0.09202927 -0.09435367 -0.18770358 -0.009524047 0.21536925 -0.019175068 -0.13449925 0.20266059
-0.07470785 -0.20065568 0.263591 0.2333418 -0.32053685 -0.08280801 -0.04487067 0.22771868
0.124972716 0.05009719 0.0906139 -0.22114848 -0.28978598 -0.17093526 -0.009255619 0.05388017
0.07614106 -0.123833984 0.058274414 -0.040424414 -0.054437056 -0.053241298 -0.025909465 -0.16669515
0.008425729 0.17069712 -0.3600073 0.026462205

linear5.weight f4 [6, 6]
00000000: 13c4 cd40 33fc 3841 e21a a7c0 1589 9c41
00000010: 4efe 0041 90b6 2641 5d9c 7940 0fb4 29bf
00000020: 789e bd40 c577 cd41 188e 8f41 50b7 d9c0
00000030: b296 1242 4da9 cd41 25a5 3241 098c 0bc1
00000040: fa22 3141 0004 b7c1 ce60 e040 1fcc 9ac0
00000050: 6d7b 0b41 0f82 5542 8f36 3441 a77d 1d3f
00000060: 178f 7741 ac9b 2a41 3e58 9f40 51d7 c141
00000070: 9ef6 0641 525b 10c1 0bca 2640 ecc1 5f40
00000080: fea1 813f 11cc ce40 f199 5dc1 9302 4ac0
6.430185 11.561572 -5.2220316 19.566935 8.062086 10.419571 3.9001687 -0.6629037
5.9255943 25.683481 17.944382 -6.803627 36.647163 25.707666 11.1653185 -8.721688
11.071039 -22.876953 7.011817 -4.837417 8.717633 53.37701 11.26332 0.61519855
15.472434 10.663006 4.9795218 24.230135 8.435209 -9.022295 2.6060817 3.496211
1.0127561 6.4624104 -13.850083 -3.156407
